model/keypoint_classifier/kk3.tflite (tflite, 8960 bytes, 4 tensors)

sequential_2/dense_5/MatMul f4 [11, 64]
00000000: 17e3 1f08 8ee1 ff87 e04b 5bb7 8200 1eb8
00000010: 658f b1b8 64d4 16b8 633a ddb7 72ce 19b8
00000020: c051 dc06 7e9c b007 b8ac 64b7 e06c 2308
00000030: 2a91 0e87 d0fe efb6 169a dc38 3c54 acb8
00000040: 67da 4887 baed 8207 5cb3 7e38 4a12 3fb8
00000050: 20c9 8586 2b72 e407 3883 7c38 bab8 1838
00000060: 909c cd37 d098 7a36 aeed 68b8 88ea 9636
00000070: b0c9 4284 1050 6ab7 82ba f5b7 914a ed07
00000080: be1a 6338 68e9 bd86 d5a7 2888 e722 69b8
00000090: e0d7 6a37 202e c236 971d 0bb8 ff58 8fb8
000000a0: 26d1 0408 5088 1606 7830 53b6 5eb2 2db9
000000b0: 60b4 2737 3586 15b8 40cc ae35 99c9 a938
000000c0: 554a 7d86 4a84 c587 0c88 1588 2010 3788
000000d0: 2978 a638 00dc a733 5331 93b8 7c99 16b8
000000e0: f315 0507 6039 fe37 6d05 a0b8 38d9 4537
000000f0: 2431 2837 018e 2638 3c9d 8838 303a ac86
00000100: 253a 3a88 7eb7 e487 08b1 d4bd 5322 f03d
00000110: a3d2 4d3d eb56 d5bd ff29 8a3c d93b a53d
00000120: b04d 2b08 7804 a187 39af d8bc 8593 3308
00000130: f078 0388 bcf7 49be 24b4 cebd c77e 003e
00000140: 257a e507 98d3 1e88 b242 103e cdb6 debd
00000150: 0693 fd07 e9b1 c387 c968 053d 2a8a 6abd
00000160: bcd3 583d d669 02be 5ccf 02be 4590 05bd
00000170: 4ad8 1c08 f775 2ebd 4074 413e 7561 1808
00000180: 86f5 043e c07e 1c87 7148 d007 d744 27be
00000190: 1e23 a43c d083 423b 24cf 55be 565e 9c3d
000001a0: 65bd 5307 09b5 0386 9618 a23d ec27 3e3e
000001b0: f3a4 013d 8d39 b53d d781 6abe dab4 6c3b
000001c0: 271d cb07 6e3a b807 56e2 8107 4e66 0808
000001d0: 7a87 2e3c 3167 163e 3d76 4abe 5550 94bd
000001e0: 4006 1385 5918 563d fc77 be3d ea7b afbc
000001f0: 67fd 92bd c8ec e23d dc6a 83be 386a 2707
00000200: 5a4e 9e06 9ac7 1207 6be1 ee3d 637c 0dbd
00000210: 3f9f 03be 313f 113e 0d31 17be 702e d6bd
00000220: 1527 8306 ac86 1687 5143 9a3d 7039 c087
00000230: ee1e c007 b20b e33c 2417 42be ffdc b9bc
00000240: 6a31 5507 76eb 3387 0be6 173d 681e 003e
00000250: 9d67 8007 067b 0608 07bf 4bbe 28a1 73bd
00000260: edfe f8bd 2557 083d ccab d73d 9118 db3d
00000270: 309e 6207 f46c f23d b8bf 90bd 3ce8 9386
00000280: 9d31 cdbc 2c9a 2a87 9fda 3d88 3bf4 123e
00000290: d6d2 febd c8df cebc 3e41 273e ffec 88bd
000002a0: ab92 8907 f885 1806 ac8b 3ebc b68b 0dbe
000002b0: e05d 323e 2b25 d3bd 8df4 1c3e d6b3 3a3e
000002c0: e74e cd87 2025 6905 e766 a087 9c6c b407
000002d0: add0 3bbd e370 3cbd 288a f93d 9313 193d
000002e0: 9262 6507 1923 c4bd de95 58bd cc54 e93d
000002f0: 88eb 223d df0e 0cbe f5e6 723d 0c1b c586
00000300: f308 c107 6e23 0408 89aa ccbd 5429 0e3c
00000310: e9a0 ce3d 59df f5bd d45b 143e 85d2 9f3d
00000320: 044a 0e88 60d2 5f06 f45c 5cbc f898 b907
00000330: a497 c407 7f05 d23c d47d c33d 0a32 373d
00000340: 86a9 a087 5af6 a607 28f4 763c e3d4 b7bd
00000350: 7066 3888 186b 3488 078c 3a3e 5ded d9bc
00000360: 11f0 ed3d 3fa5 86bd 22e2 a1bd 81c1 2dbe
00000370: 4978 d087 431d 2dbe f459 343d dbee 3f08
00000380: a8df 1c3c 8a73 9f87 ac7b b585 75e8 ccbd
00000390: 83d9 273e 72dd 3c3d a46b 80bd 7acb 873d
000003a0: 9cbd be07 cf7d 2486 c7a3 7e3c 62b0 05be
000003b0: c183 1abe e16f b7bc af26 15bd 23be debd
000003c0: 8662 2488 63d8 7687 8404 2907 c9a8 9c07
000003d0: ea7c 183e 6341 fb3c 22bf acbd d004 acbd
000003e0: d4b7 0c85 be0a 363e 0d50 933d 4ec2 07be
000003f0: b09a e6bd 8b7a 0e3e 0997 093d 6d8d 9e87
4.8114265e-34 -3.8500705e-34 -1.3071083e-05 -3.767061e-05 -8.466727e-05 -3.596059e-05 -2.6372441e-05 -3.667031e-05
8.2874923e-35 2.6573515e-34 -1.3630073e-05 4.917901e-34 -1.0725553e-34 -7.152419e-06 0.00010519118 -8.217289e-05
-1.511051e-34 1.969995e-34 6.072536e-05 -4.555498e-05 -5.0324566e-35 3.437273e-34 6.020369e-05 3.6411664e-05
2.451081e-05 3.7341852e-06 -5.5534467e-05 4.4976514e-06 -2.28972e-36 -1.3966128e-05 -2.9293125e-05 3.5703623e-34
5.4145923e-05 -7.143686e-35 -5.0752947e-34 -5.5584034e-05 1.3997749e-05 5.78702e-06 -3.316774e-05 -6.835348e-05
3.996816e-34 2.831201e-35 -3.1469663e-06 -0.00016565013 9.9959725e-06 -3.564936e-05 1.3023455e-06 8.0960985e-05
-4.7638622e-35 -2.9719018e-34 -4.499798e-34 -5.5088514e-34 7.9378784e-05 7.816561e-08 -7.0186936e-05 -3.590573e-05
1.0012258e-34 3.0305877e-05 -7.630405e-05 1.179269e-05 1.0025022e-05 3.9709736e-05 6.5142725e-05 -6.478471e-35
-5.6040688e-34 -3.4413474e-34 -0.103853285 0.11725297 0.050249707 -0.10416969 0.016865728 0.08068056
5.154976e-34 -2.4227214e-34 -0.02645074 5.403926e-34 -3.956354e-34 -0.1972341 -0.10092953 0.12548362
3.452788e-34 -4.7795123e-34 0.14087942 -0.1087471 3.8153622e-34 -2.9444905e-34 0.032570634 -0.05726067
0.0529363 -0.12735686 -0.12774414 -0.03260829 4.719879e-34 -0.04259297 0.18892002 4.5855396e-34
0.12984285 -1.1773384e-34 3.1338939e-34 -0.16334854 0.020036276 0.0029680617 -0.20879799 0.07635181
1.5929534e-34 -2.4771365e-35 0.07914846 0.18569916 0.03165145 0.088488676 -0.22901092 0.0036118538
3.056118e-34 2.7719585e-34 1.954279e-34 4.104627e-34 0.010652417 0.14687802 -0.19771667 -0.072418846
-6.913055e-36 0.052269313 0.09300229 -0.021421392 -0.07177239 0.11080319 -0.25667465 1.2594899e-34
5.954812e-35 1.1042477e-34 0.11664089 -0.034542453 -0.12853716 0.14184262 -0.14764805 -0.10458076
4.933415e-35 -1.1324322e-34 0.07532371 -2.8922708e-34 2.8907128e-34 0.027715538 -0.1895414 -0.022688387
1.603886e-34 -1.3535659e-34 0.03708462 0.12511599 1.9320198e-34 4.046877e-34 -0.1989709 -0.059479862
-0.12157998 0.033286233 0.105308145 0.10698045 1.7048837e-34 0.118371874 -0.070678174 -5.563649e-35
-0.025048072 -1.2834686e-34 -5.7132107e-34 0.14350979 -0.124425575 -0.025253192 0.16333482 -0.066858284
2.0699673e-34 2.8686447e-35 -0.01162998 -0.13822827 0.17418623 -0.103098236 0.15327664 0.18232664
-3.0891346e-34 1.0962426e-35 -2.4134605e-34 2.7147225e-34 -0.045853306 -0.046006095 0.12184554 0.037372183
1.7257012e-34 -0.09577007 -0.0528773 0.11393127 0.0397754 -0.13677548 0.05930229 -7.4142906e-35
2.9044672e-34 3.9763953e-34 -0.099934645 0.008676846 0.10089285 -0.12005491 0.14488155 0.07803825
-4.2818576e-34 4.2096198e-35 -0.013449896 2.7925613e-34 2.9579929e-34 0.025637386 0.09545484 0.044725455
-2.4173761e-34 2.5121696e-34 0.01507286 -0.08976152 -5.54909e-34 -5.429267e-34 0.18217479 -0.026602441
0.11618055 -0.06574487 -0.079044595 -0.16968347 -3.136706e-34 -0.16905694 0.0440311 5.7757745e-34
0.009574808 -2.3991569e-34 -1.7066588e-35 -0.10005275 0.16391568 0.046109624 -0.06270531 0.06630607
2.8699465e-34 -3.09374e-35 0.015541977 -0.13055566 -0.15089323 -0.022392215 -0.036413845 -0.108761095
-4.946777e-34 -1.8570573e-34 1.2715474e-34 2.3571474e-34 0.14891401 0.030670827 -0.08434893 -0.083993554
-6.616532e-36 0.17777535 0.07193003 -0.13257715 -0.11259973 0.13913934 0.033591304 -2.385632e-34

sequential_2/dense_5/BiasAdd/ReadVariableOp f4 [11]
00000000: 1eae 02c1 e583 243f 643b debf c23a 33bf
00000010: 65cb 4b3f 209f 8abf ee30 ffbf a694 0f3e
00000020: 7ca2 793f 6bbc 3d3e d2cf fcbf
-8.167509 0.64263755 -1.7361875 -0.7001153 0.7960723 -1.0829811 -1.9936807 0.14021549
0.97513556 0.18528907 -1.9750922

sequential_2/dense_4/BiasAdd/ReadVariableOp f4 [64]
00000000: 612c 8bbc 0000 0000 0874 05c0 7665 0e3f
00000010: 6585 8c3b f885 6dbf 2227 9e3e 11ec bb3e
00000020: 0000 0000 2e0d afbb d483 05c0 7490 c4bb
00000030: 511e afbb d40b abbe 0d78 8c3b 61ac deba
00000040: 89fd b5bb 0000 0000 63d2 dd3e 195d 15c0
00000050: e628 67bc 0000 0000 f68f 0f40 f46a fe3f
00000060: 9b82 883b 343a a63e 2afe b33e c2a4 403f
00000070: 7346 bcbc 7c08 3a3e fda8 5b3f f600 06bc
00000080: 2351 2940 0000 0000 0000 0000 5462 6dbf
00000090: 77a4 783e 32df ce3a 582c e7bf e041 f33a
000000a0: 0000 0000 0000 0000 351c 123e 7d4c 7440
000000b0: 3ed1 5b3f 540e 8d3f a4bc 19c0 1758 223f
000000c0: 3b38 e7bc 0000 0000 b1e7 7abc 0000 0000
000000d0: 5f5b 4fba 96f6 f83e 9d1a 99bf 60f0 8c3f
000000e0: 0000 0000 0d05 9c3b df7f c43b 8d00 18c0
000000f0: 8fc7 b93f ecfe c73f 2dee 2bc0 0000 0000
-0.016988935 0.0 -2.085207 0.5562357 0.004288363 -0.92782545 0.3088923 0.36703542
0.0 -0.0053421473 -2.0861712 -0.0059986655 -0.00534419 -0.33407462 0.004286772 -0.0016988629
-0.0055539054 0.0 0.43324575 -2.3338072 -0.014108872 0.0 2.2431617 1.987639
0.00416596 0.3246628 0.3515485 0.752514 -0.022982812 0.18167299 0.8580473 -0.00817894
2.6455772 0.0 0.0 -0.9272816 0.24281488 0.001578307 -1.8060408 0.0018559061
0.0 0.0 0.14268573 3.8171685 0.85866153 1.1019998 -2.4021387 0.63415664
-0.028225055 0.0 -0.015314029 0.0 -0.00079100387 0.4862563 -1.1961247 1.1010857
0.0 0.0047613443 0.0059966887 -2.3750336 1.4514025 1.5624671 -2.686412 0.0

sequential_2/dense_4/MatMul i1 [64, 63] scale=0.122949466 zero_point=0
00000000: ff01 02fe 0102 0001 0101 fe02 0101 01ff
00000010: ffff 00ff 01ff 02ff 0102 fe00 01ff ff00
00000020: 02ff fe01 fffe 0200 ff00 ff00 0200 0001
00000030: 0100 ff01 ff00 02fe 0001 fffe 01fe fffe
00000040: ff01 ff01 0100 ff00 ff01 00fe ff00 0101
00000050: 0100 ffff 0102 ff00 0200 fe01 00ff 0101
00000060: fffe ff02 0101 01ff ffff 00ff ffff 00ff
00000070: 0000 ff00 ffff ff01 0100 0000 ff00 02ee
00000080: 0200 efee fdf1 f6f3 fffd e011 0300 fbe3
00000090: ffff fcfe faff fbf7 0101 f8f2 0304 f903
000000a0: 08ee fe10 ea04 fb02 0806 ff08 09ee 0713
000000b0: e603 fd0e 0a07 040e 11fa 1117 f605 0101
000000c0: 03f6 1e05 ef17 08ea 1417 e412 06fb 3902
000000d0: fd10 fd06 14fa 0d1c 0503 21fd 0102 fc0a
000000e0: 09fa 0f1a 0108 fffe 07f3 fc0c eef9 12f6
000000f0: 000b f8ff 0bf7 fd0f f7fc 1501 f2f8 fff8
-0.122949466 0.122949466 0.24589893 -0.24589893 0.122949466 0.24589893 0.0 0.122949466
0.122949466 0.122949466 -0.24589893 0.24589893 0.122949466 0.122949466 0.122949466 -0.122949466
-0.122949466 -0.122949466 0.0 -0.122949466 0.122949466 -0.122949466 0.24589893 -0.122949466
0.122949466 0.24589893 -0.24589893 0.0 0.122949466 -0.122949466 -0.122949466 0.0
0.24589893 -0.122949466 -0.24589893 0.122949466 -0.122949466 -0.24589893 0.24589893 0.0
-0.122949466 0.0 -0.122949466 0.0 0.24589893 0.0 0.0 0.122949466
0.122949466 0.0 -0.122949466 0.122949466 -0.122949466 0.0 0.24589893 -0.24589893
0.0 0.122949466 -0.122949466 -0.24589893 0.122949466 -0.24589893 -0.122949466 -0.24589893
-0.122949466 0.122949466 -0.122949466 0.122949466 0.122949466 0.0 -0.122949466 0.0
-0.122949466 0.122949466 0.0 -0.24589893 -0.122949466 0.0 0.122949466 0.122949466
0.122949466 0.0 -0.122949466 -0.122949466 0.122949466 0.24589893 -0.122949466 0.0
0.24589893 0.0 -0.24589893 0.122949466 0.0 -0.122949466 0.122949466 0.122949466
-0.122949466 -0.24589893 -0.122949466 0.24589893 0.122949466 0.122949466 0.122949466 -0.122949466
-0.122949466 -0.122949466 0.0 -0.122949466 -0.122949466 -0.122949466 0.0 -0.122949466
0.0 0.0 -0.122949466 0.0 -0.122949466 -0.122949466 -0.122949466 0.122949466
0.122949466 0.0 0.0 0.0 -0.122949466 0.0 0.24589893 -2.2130904
0.24589893 0.0 -2.0901408 -2.2130904 -0.36884838 -1.844242 -1.2294947 -1.598343
-0.122949466 -0.36884838 -3.934383 2.0901408 0.36884838 0.0 -0.61474735 -3.5655346
-0.122949466 -0.122949466 -0.49179786 -0.24589893 -0.73769677 -0.122949466 -0.61474735 -1.1065452
0.122949466 0.122949466 -0.9835957 -1.7212925 0.36884838 0.49179786 -0.86064625 0.36884838
0.9835957 -2.2130904 -0.24589893 1.9671915 -2.7048883 0.49179786 -0.61474735 0.24589893
0.9835957 0.73769677 -0.122949466 0.9835957 1.1065452 -2.2130904 0.86064625 2.3360398
-3.196686 0.36884838 -0.36884838 1.7212925 1.2294947 0.86064625 0.49179786 1.7212925
2.0901408 -0.73769677 2.0901408 2.8278377 -1.2294947 0.61474735 0.122949466 0.122949466
0.36884838 -1.2294947 3.688484 0.61474735 -2.0901408 2.8278377 0.9835957 -2.7048883
2.4589894 2.8278377 -3.442585 2.2130904 0.73769677 -0.61474735 7.0081196 0.24589893
-0.36884838 1.9671915 -0.36884838 0.73769677 2.4589894 -0.73769677 1.598343 3.442585
0.61474735 0.36884838 4.0573325 -0.36884838 0.122949466 0.24589893 -0.49179786 1.2294947
1.1065452 -0.73769677 1.844242 3.196686 0.122949466 0.9835957 -0.122949466 -0.24589893
0.86064625 -1.598343 -0.49179786 1.4753935 -2.2130904 -0.86064625 2.2130904 -1.2294947
0.0 1.3524442 -0.9835957 -0.122949466 1.3524442 -1.1065452 -0.36884838 1.844242
-1.1065452 -0.49179786 2.5819387 0.122949466 -1.7212925 -0.9835957 -0.122949466 -0.9835957
