model/keypoint_classifier/kk4.tflite (tflite, 8960 bytes, 4 tensors)

sequential_3/dense_7/MatMul f4 [11, 64]
000000 44 71 af b5 c3 f4 d7 07 d0 13 fa 37 9a a5 29 08
       -1.3071481e-06 3.2493463e-34 2.9811548e-05 5.105125e-34
000010 24 df ea 37 1f b7 c1 87 b7 75 80 b7 c5 be 4f 37
       2.7998882e-05 -2.9147041e-34 -1.5313604e-05 1.23825785e-05
000020 2e c8 32 b7 26 0b b8 b7 b5 2c df 87 12 01 93 37
       -1.0656235e-05 -2.19397e-05 -3.3579587e-34 1.7524264e-05
000030 e4 18 0a 88 b0 0b b7 b6 7c 3c 96 07 78 fc c9 37
       -4.1557123e-34 -5.4551856e-06 2.260504e-34 2.4078632e-05
000040 3c c1 7c 07 03 52 e5 36 5f b0 96 07 60 0e f6 37
       1.9015159e-34 6.8342792e-06 2.2673153e-34 2.933218e-05
000050 af 05 97 b7 d3 50 9c b7 85 6b 2e 37 4e b5 53 b7
       -1.800325e-05 -1.8634286e-05 1.0396242e-05 -1.2618793e-05
000060 bc 82 90 37 4c 4c 4c 36 81 82 68 b6 9c 00 93 36
       1.7227016e-05 3.044278e-06 -3.4646657e-06 4.3810123e-06
000070 7e dc 55 87 d0 92 91 b0 7a 50 87 b7 98 6e b4 07
       -1.6089136e-34 -1.0591865e-09 -1.6130729e-05 2.714839e-34
000080 0a ff cb b6 f2 81 19 b7 66 66 07 37 10 05 17 b7
       -6.079562e-06 -9.149766e-06 8.0704685e-06 -9.00148e-06
000090 92 17 80 b7 46 de 98 36 60 b1 11 08 f0 43 82 35
       -1.5269765e-05 4.555829e-06 4.3842854e-34 9.705527e-07
0000a0 64 c9 9d b6 f4 54 f0 37 28 04 3c 35 8f 3a 04 b7
       -4.7024096e-06 2.8649789e-05 7.0041506e-07 -7.881447e-06
0000b0 dc 10 2e b5 3a bb 7d 87 82 20 df b6 68 a5 ac b5
       -6.4844585e-07 -1.9088625e-34 -6.6497023e-06 -1.2863138e-06
0000c0 ce a1 5c b7 b6 dd e3 b7 3d c9 1c 37 23 52 3f 38
       -1.3150695e-05 -2.7163751e-05 9.345179e-06 4.5614444e-05
0000d0 f9 87 02 87 7c 24 3c b6 b3 4f 02 b7 ac 5f b6 05
       -9.820072e-35 -2.803542e-06 -7.76716e-06 1.7150342e-35
0000e0 1d 8d fb 07 1f 9a 8b 07 5d 13 92 b5 c2 13 28 37
       3.7849221e-34 2.100498e-34 -1.0883483e-06 1.0018181e-05
0000f0 28 cf 59 07 7c ce 58 37 8f c1 ce b6 27 de 85 37
       1.6386143e-34 1.2922679e-05 -6.1618116e-06 1.5958283e-05
000100 af 77 44 be 00 8e d0 85 34 58 2b be 76 a2 2f 88
       -0.1918628 -1.9612389e-35 -0.16732866 -5.285312e-34
000110 12 c2 39 be 62 7f ee 86 fb 38 f3 bd f9 a8 b9 bc
       -0.18140438 -8.971282e-35 -0.118761025 -0.02266358
000120 8d d9 67 3d 3e b3 cd 3d 84 98 9d 85 de e8 07 3e
       0.056603957 0.10043953 -1.4820234e-35 0.13272426
000130 72 f5 28 88 72 6e ca bd 0a 7f 15 88 7e 10 01 be
       -5.084418e-34 -0.09884347 -4.498739e-34 -0.12603948
000140 2f cc d0 07 2d 97 ae 3d 08 0e cf 07 6c 95 03 be
       3.141637e-34 0.08524928 3.1154145e-34 -0.12849969
000150 a6 74 d1 3d 50 a9 c8 bd eb 9d 2b 3e bd 05 dd 3d
       0.10227327 -0.09797919 0.1675946 0.1079211
000160 e3 05 a8 3d eb 32 6e bd 34 83 3f 3e b4 77 bf bc
       0.08204248 -0.058154028 0.18702394 -0.023372509
000170 e8 9a b5 07 d0 0c 88 2b 56 4c 35 3e 68 8b 3a 87
       2.7324899e-34 9.666937e-13 0.17704901 -1.4034053e-34
000180 e6 ec 6f 3d 41 49 02 3e 54 1e 2d bd 22 d6 d3 3c
       0.058575533 0.12723257 -0.04226525 0.025858942
000190 1e 42 4e bc 9a 92 03 be c4 b2 cd 07 bf 15 3b 3e
       -0.012589006 -0.12848893 3.095004e-34 0.18270014
0001a0 8a d1 14 bd 4b 96 9f bc 93 0e 77 bd 49 a5 86 3d
       -0.036332645 -0.019480845 -0.060316633 0.065744944
0001b0 d0 be 99 bb c5 cc de 07 dc 7b 76 3d fe c4 93 3d
       -0.004691936 3.35232e-34 0.060176715 0.07215308
0001c0 7c ad 0f bb 5e c9 ce bd a3 bb 24 bd cf 6b 52 be
       -0.0021923473 -0.100970015 -0.040218007 -0.20548938
0001d0 34 f5 0b 07 e3 dc 80 3d 6a 6c 89 3d fe a6 01 08
       1.0529256e-34 0.06292131 0.067101315 3.9015824e-34
0001e0 dc 2a 01 87 64 82 ac 87 b4 41 18 be e4 95 f6 bc
       -9.717477e-35 -2.595632e-34 -0.14868814 -0.03010077
0001f0 36 78 bb 86 e6 49 a7 bc 54 7c 89 3d 54 d0 25 3d
       -7.0518216e-35 -0.02042098 0.06713167 0.04048188
000200 c8 51 22 3e 00 dc 3d 85 39 de ec 3d 2e c9 7d 07
       0.1585151 -8.927145e-36 0.11565823 1.9092726e-34
000210 cb fe 0d 3e 98 65 77 07 e0 90 a3 3d 2d 20 96 3d
       0.13866727 1.861207e-34 0.07986617 0.07330356
000220 04 86 37 3d 61 af ba bc e6 46 97 07 79 41 bd bd
       0.04480554 -0.022788705 2.2761625e-34 -0.092410035
000230 8f aa b2 87 ae 12 dc 3d eb 1c 4c 87 30 14 aa 3d
       -2.6882709e-34 0.1074575 -1.5355752e-34 0.08304632
000240 2b c6 5e 87 cc a9 5c bd a9 90 e2 07 c4 f5 1c 3e
       -1.675966e-34 -0.05387287 3.4089724e-34 0.15328127
000250 4f c3 40 bd 3d 33 35 3d d2 33 e3 bd 0f 55 88 bd
       -0.04706126 0.044238318 -0.11093868 -0.06656849
000260 bc a5 8b bd 52 54 9b 3d e1 75 cc 3b e6 87 6a bb
       -0.06818721 0.07584442 0.006239638 -0.0035786568
000270 b4 d3 84 05 28 88 03 88 d0 44 07 3e 19 3c 2b 88
       1.2490988e-35 -3.958143e-34 0.13209844 -5.1529085e-34
000280 08 7b c2 3d ee c6 bd bd 2b 7d fb bd 6d c5 b1 bd
       0.094961226 -0.092664585 -0.12279733 -0.08680234
000290 ea 22 cf 3d 60 d0 f8 3d 90 01 27 08 4c c7 a8 bd
       0.10114081 0.121491194 5.025657e-34 -0.08241138
0002a0 24 a3 01 3e 4a 3f 1f 3d f4 bc be bd bd 84 8d 3d
       0.1265989 0.038878717 -0.09313384 0.069100834
0002b0 ba dc 1d 3d 6c 54 24 06 11 2f 59 bc fd c9 90 bd
       0.03854058 3.0906995e-35 -0.01325585 -0.07069776
0002c0 79 f7 e2 3c 0b a4 f5 3d ec 5d 30 be 3c 3f 27 3e
       0.027705895 0.11994179 -0.17223328 0.16332716
0002d0 2a 1b 19 88 7f 92 c7 bd 68 f0 aa bd f0 f8 d8 07
       -4.6073694e-34 -0.09744739 -0.08346635 3.264638e-34
0002e0 31 ef 49 87 fd 64 3b 08 55 d9 c3 3d 8b 92 94 bb
       -1.5191851e-34 5.6391977e-34 0.09562937 -0.004534071
0002f0 e5 fb 11 88 24 ab 91 bd 17 1b 9c bd 2b 08 22 be
       -4.393045e-34 -0.071127206 -0.076223545 -0.15823428
000300 54 4d 25 bc 67 9e 29 07 1f 54 71 bd 56 06 7f 87
       -0.010089237 1.2760697e-34 -0.058918115 -1.918593e-34
000310 10 93 a6 bd 00 8b b9 05 06 03 0d bd 47 f9 07 be
       -0.08133519 1.7448377e-35 -0.03442671 -0.13278686
000320 46 08 dd bd 0d dc 5a 3d ce a3 4b 06 90 de 6b bc
       -0.10792594 0.053432513 3.83004e-35 -0.014396325
000330 ea 5a d7 87 ff 76 a5 bd 03 f2 95 07 4a 36 2f bc
       -3.240304e-34 -0.08079337 2.256127e-34 -0.010694096
000340 04 8c 6d 87 cd 08 b4 3d 00 c5 50 02 85 5d ba bd
       -1.7871045e-34 0.08790741 1.5337963e-37 -0.09099869
000350 01 fd c1 3d 6a 55 b3 bd e4 df 99 3d 7f 19 7a 3d
       0.09472085 -0.08756526 0.07513407 0.06105947
000360 6c 70 6b bd 4f a7 f9 bc af 25 d3 bc 9f 5f 1f be
       -0.05748026 -0.030475287 -0.025774805 -0.1556382
000370 fa 87 06 88 61 33 e1 32 2f 33 fd bd f2 2e 2a 06
       -4.0484e-34 2.6216812e-08 -0.12363278 3.2007936e-35
000380 6c 15 10 be 68 15 6e 3d c6 c4 e6 3d d3 da 19 3e
       -0.14070672 0.058125883 0.11268 0.15024881
000390 a8 7b d9 3c e7 a8 68 bd 0a f1 57 87 94 32 b8 bd
       0.026548222 -0.056801703 -1.6245637e-34 -0.08994022
0003a0 77 f2 b1 bd ba 57 29 3d fc 79 f5 3d 98 01 0a be
       -0.086888246 0.04134343 0.11986157 -0.1347717
0003b0 a5 f6 1b bd bf b9 4e 07 f3 b9 54 3d 00 82 db 3d
       -0.038077015 1.5552303e-34 0.051935147 0.10718155
0003c0 0c 36 17 3c 99 f3 d7 bd bb 71 ba 3d f7 1e 9f bd
       0.009229194 -0.105445094 0.091037236 -0.07769578
0003d0 09 29 18 08 9d 85 b3 3d ed 79 cb 3d 01 e0 fb 87
       4.5789073e-34 0.08765719 0.09935365 -3.789794e-34
0003e0 ea 28 22 87 74 0a 35 88 27 18 9a bc e8 65 dc 3d
       -1.2199549e-34 -5.4479994e-34 -0.018810345 0.107616246
0003f0 2d 93 02 87 c0 50 55 3d cc 5a be 3d 85 8d bb 3d
       -9.823364e-35 0.052078962 0.09294662 0.09157852

sequential_3/dense_7/BiasAdd/ReadVariableOp f4 [11]
000000 fa c2 49 c1 60 7f 94 3e 5c 57 84 c0 d6 c8 58 bf
       -12.610102 0.2900343 -4.135664 -0.8468145
000010 cf 96 d4 3e 7c 5a a5 3d 78 3c a2 be d1 c7 24 3f
       0.41521308 0.08073899 -0.3168676 0.64367396
000020 5e 91 45 3f d8 97 c4 be ed c9 d9 3e
       0.7717494 -0.38397098 0.4253687

sequential_3/dense_6/BiasAdd/ReadVariableOp f4 [64]
000000 09 25 15 c0 00 00 00 00 be 37 15 c0 b6 67 41 bc
       -2.3303854 0.0 -2.3315272 -0.011804512
000010 7e c4 09 c0 00 00 00 00 77 aa d8 bf 8b 37 2f 3f
       -2.152618 0.0 -1.6927022 0.68444127
000020 16 ce f0 3e 8c fa bc 3c 00 00 00 00 56 2e 93 3f
       0.4703223 0.023068689 0.0 1.1498516
000030 00 00 00 00 30 72 18 c0 8c 11 b5 bb a1 74 07 c0
       0.0 -2.3819695 -0.0055257734 -2.1164935
000040 ef b4 e5 bb 11 fc d8 3b 00 00 00 00 a3 ea 08 c0
       -0.0070100944 0.0066218455 0.0 -2.139321
000050 eb f5 d3 3b 76 2c 1d c0 2f 2b 26 3f e8 c6 ab 3e
       0.0064685247 -2.4558387 0.6490964 0.3355019
000060 e4 32 a6 3f 60 4c b4 bf 9f 08 b9 3d e3 ab c6 3f
       1.298428 -1.4085808 0.090348475 1.5521206
000070 00 00 00 00 dd 72 ad bc 72 bd 8f 3d 00 00 00 00
       0.0 -0.021172935 0.07018556 0.0
000080 88 fb 00 3f 11 99 e5 3e 0a 60 f5 3d ee b7 91 bb
       0.50383806 0.44843343 0.119812086 -0.004446975
000090 41 7d 29 be 04 05 e3 bf 00 00 00 00 4f 72 c9 3f
       -0.16551687 -1.7735906 0.0 1.5738009
0000a0 0b 66 01 3d cc 30 aa 3b e6 7b 02 3e 05 fd 00 3f
       0.031591456 0.0051938053 0.12742576 0.5038608
0000b0 13 40 14 3f 00 00 00 00 74 d2 1f 3c a5 e8 d5 3b
       0.5791027 0.0 0.009754766 0.0065279775
0000c0 ca 7d 93 3b a6 44 d3 bf 21 c3 5c 3f b1 0d db bf
       0.004501079 -1.6505325 0.86235243 -1.7113553
0000d0 65 5c c5 bb 59 c1 e7 3e b8 18 8a 3c ee e6 87 bc
       -0.006022977 0.452647 0.01685749 -0.016589608
0000e0 00 00 00 00 00 00 00 00 06 e7 e9 bf 45 4d 90 ba
       0.0 0.0 -1.8273628 -0.0011009356
0000f0 00 00 00 00 d2 74 9f 3e 82 8c 16 3c 45 1c 7a 3f
       0.0 0.31143814 0.009188773 0.97699386

sequential_3/dense_6/MatMul i1 [64, 63] scale=0.09765973 zero_point=0
000000 e5 0f 03 e8 11 ff f7 14 ff f9 1d fe e8 24 f2 f9
       -2.6368127 1.464896 0.29297918 -2.3438334 1.6602154 -0.09765973 -0.87893754 1.9531946 -0.09765973 -0.6836181 2.832132 -0.19531946 -2.3438334 3.5157502 -1.3672363 -0.6836181
000010 18 c7 08 0f 0b 0d ef 00 11 e2 eb f8 18 c4 08 0b
       2.3438334 -5.5666046 0.78127784 1.464896 1.074257 1.2695764 -1.6602154 0.0 1.6602154 -2.929792 -2.0508542 -0.78127784 2.3438334 -5.859584 0.78127784 1.074257
000020 18 12 e5 ff 1a d6 dd f5 1a d5 09 0b 19 14 eb f0
       2.3438334 1.7578751 -2.6368127 -0.09765973 2.5391529 -4.1017084 -3.4180906 -1.074257 2.5391529 -4.1993685 0.87893754 1.074257 2.4414933 1.9531946 -2.0508542 -1.5625557
000030 19 d9 b1 f4 1c e4 03 14 f3 0a fa d8 0e ed a8 ff
       2.4414933 -3.8087294 -7.7151184 -1.1719167 2.7344725 -2.7344725 0.29297918 1.9531946 -1.2695764 0.9765973 -0.58595836 -3.9063892 1.3672363 -1.8555349 -8.594056 -0.09765973
000040 02 00 00 fe ff ff 00 ff ff 01 ff ff ff ff 02 ff
       0.19531946 0.0 0.0 -0.19531946 -0.09765973 -0.09765973 0.0 -0.09765973 -0.09765973 0.09765973 -0.09765973 -0.09765973 -0.09765973 -0.09765973 0.19531946 -0.09765973
000050 01 00 fe 00 01 01 01 02 00 02 ff ff ff 01 00 00
       0.09765973 0.0 -0.19531946 0.0 0.09765973 0.09765973 0.09765973 0.19531946 0.0 0.19531946 -0.09765973 -0.09765973 -0.09765973 0.09765973 0.0 0.0
000060 ff ff 01 ff ff 02 ff 02 00 fe ff fe fe fe 00 ff
       -0.09765973 -0.09765973 0.09765973 -0.09765973 -0.09765973 0.19531946 -0.09765973 0.19531946 0.0 -0.19531946 -0.09765973 -0.19531946 -0.19531946 -0.19531946 0.0 -0.09765973
000070 00 00 01 ff 01 02 ff 00 fe 01 02 fe 02 00 fb f4
       0.0 0.0 0.09765973 -0.09765973 0.09765973 0.19531946 -0.09765973 0.0 -0.19531946 0.09765973 0.19531946 -0.19531946 0.19531946 0.0 -0.48829865 -1.1719167
000080 05 ff f7 f6 fc fb fe f4 0c 02 d8 1c ff fc 02 e6
       0.48829865 -0.09765973 -0.87893754 -0.9765973 -0.39063892 -0.48829865 -0.19531946 -1.1719167 1.1719167 0.19531946 -3.9063892 2.7344725 -0.09765973 -0.39063892 0.19531946 -2.5391529
000090 00 fc 11 02 e5 09 00 df fd 02 02 ed 04 03 fc 09
       0.0 -0.39063892 1.6602154 0.19531946 -2.6368127 0.87893754 0.0 -3.2227712 -0.29297918 0.19531946 0.19531946 -1.8555349 0.39063892 0.29297918 -0.39063892 0.87893754
0000a0 01 e1 06 07 cb 03 00 fc 0b 03 04 0d 01 e0 0a 0a
       0.09765973 -3.0274515 0.58595836 0.6836181 -5.175966 0.29297918 0.0 -0.39063892 1.074257 0.29297918 0.39063892 1.2695764 0.09765973 -3.1251113 0.9765973 0.9765973
0000b0 bd 02 02 0c 0b 06 f9 10 0a e6 14 12 d5 ff fe fe
       -6.543202 0.19531946 0.19531946 1.1719167 1.074257 0.58595836 -0.6836181 1.5625557 0.9765973 -2.5391529 1.9531946 1.7578751 -4.1993685 -0.09765973 -0.19531946 -0.19531946
0000c0 00 fe 01 01 01 02 ff fe 00 01 fe 02 00 ff ff 02
       0.0 -0.19531946 0.09765973 0.09765973 0.09765973 0.19531946 -0.09765973 -0.19531946 0.0 0.09765973 -0.19531946 0.19531946 0.0 -0.09765973 -0.09765973 0.19531946
0000d0 ff 01 fe ff 00 ff 00 02 00 02 00 00 01 02 ff ff
       -0.09765973 0.09765973 -0.19531946 -0.09765973 0.0 -0.09765973 0.0 0.19531946 0.0 0.19531946 0.0 0.0 0.09765973 0.19531946 -0.09765973 -0.09765973
0000e0 ff fe 00 00 ff 02 02 ff 00 fe 00 01 fe 00 ff ff
       -0.09765973 -0.19531946 0.0 0.0 -0.09765973 0.19531946 0.19531946 -0.09765973 0.0 -0.19531946 0.0 0.09765973 -0.19531946 0.0 -0.09765973 -0.09765973
0000f0 02 01 01 fe 02 ff 01 00 02 00 00 ff 0b f7 02 09
       0.19531946 0.09765973 0.09765973 -0.19531946 0.19531946 -0.09765973 0.09765973 0.0 0.19531946 0.0 0.0 -0.09765973 1.074257 -0.87893754 0.19531946 0.87893754
